app/src/main/ml/codishoes_model.tflite (tflite, 34392 bytes, 6 tensors)

arith.constant f4 [8, 64]
00000000: 4035 f63d 9d7c 803e 4c7d 04be da4b 49bd
00000010: 3e3b 3e3d ddc8 2a3e 76cf 9e3d 96d8 b13e
00000020: f1ae 1abf 3a06 bc3e c448 6c3e bdf6 3d3e
00000030: 24a9 82be 8c34 193f 0ef2 5e3d 3796 de3d
00000040: f9c1 41be ffb9 41be b4ea 24be e90f 193c
00000050: 6c69 f5bd d25d c7be 9be0 6cbe 943f ba3d
00000060: bdf4 b63e a2c3 de3e 621a d7be d86b 8ebe
00000070: d4b1 d53c 3d22 27bd e771 56bd 9218 ac3e
00000080: b977 8cbe 942e efbe c499 8e3e a686 12be
00000090: 933f aa3e c3e8 9d3d 307e 763e b96a 97be
000000a0: 5660 b93e 50fa d83d 6ec9 67bd f7e6 973d
000000b0: 488e ffbd 4d9e 1cbe d69e 4bbe 660e 6cbe
000000c0: 1987 cdbe d452 53be 07db 9b3e 86a4 cdbd
000000d0: 3f82 bf3e 9eeb c23e bb6c 27be d14a 5f3e
000000e0: 6603 a83d 1457 aabe 52ff f83e 2b95 abbc
000000f0: 4e21 543e 5cff 83be 18c8 bbbc 789a 693e
00000100: 9815 a43e 2964 6f3d 083c 17be 9f3e 4b3e
00000110: b6fb 823e b9bf 75be 0d12 a0be a42d 27be
00000120: e05b a23d bcb1 193e e5a8 25be f026 4cbe
00000130: 8502 9e3d 8b39 8cbe 88ce a83e 35e8 553e
00000140: eaf3 39be 5b68 a3be 5eae f33e 3f37 e9be
00000150: b384 a9be 67aa ac3d 5a33 203e 4d70 253e
00000160: 2bd9 c13e 501f b03d f68c 7cbd f9ef 823e
00000170: eb7f 08bd 50ce a33e 2663 9bbe a46c b8bd
00000180: 578c dc3e 1f0d 88be da6f 183d 77c5 1bbe
00000190: db17 14bf f429 cdbe 832b 6dbe 650b fabe
000001a0: 23b3 fdbe caeb 76be a8b5 b03d 509c 8dbe
000001b0: ac34 03be 5a5c 03bf 7cfe 973d d799 8bbe
000001c0: 6ee6 af3d 37c3 afbe 8ae0 1cbe 33cc 913e
000001d0: 136b 313b ae1c 0bbf bd76 263e 84a2 8dbe
000001e0: f75d 673e c6ac d83d d269 0a3e 7188 7bbd
000001f0: 3b16 7bbe d8aa 8bbd e07c 293e 8e13 f5be
00000200: 7b25 2bbe 2916 5bbe 872b f2be 0f83 763e
00000210: 7be7 fe3d dc64 203e b569 f33e 6ffd 26be
00000220: 268c f13d 69c3 a3be a329 b63e 384c 003e
00000230: 4eda a7be 3f52 c5be 40ab 3fbe 3226 dabe
00000240: d1d8 ce3e 2553 bc3e a660 9dbe 3d47 cb3d
00000250: 38d4 e7bd 067e 963e 4513 15bf ce3d ec3e
00000260: 335b 76be a668 b9be bc82 53be acce 3dbe
00000270: b79d 09bf 9d32 f1be 2c60 80bb c488 d43e
00000280: 734f d1be 77c4 fe3e 2f6a d73d 5e52 edbe
00000290: 4992 8a3d 969e 05bf 0ab9 b53d 0a6a 863e
000002a0: 5e40 413e 55c7 b63e 58b4 c83e 5936 e3be
000002b0: f797 233d 7468 d4bb ce17 04be e8ac bfbd
000002c0: 4f9f f33d 3af5 9f3e 31a1 aabe dd05 b5bd
000002d0: 0277 b2be 834a 28be b5d3 88be 7575 3a3d
000002e0: 5fed 48bd 7818 8dbd 46b6 32bd 828b d0bb
000002f0: 4060 9a3e c44d e8bd 06ae 3c3e 8f5a 823e
00000300: ae9d 34be e6de e3be 235f cabd 2438 04be
00000310: e0b5 b2be 8e91 dabe 95b4 6bbd 1096 d3be
00000320: 71f2 85be 1e45 5d3d 3d03 693d 2c16 ddbe
00000330: f961 953e 34c7 223e d1ef 9bbe 9135 a43e
00000340: 6425 bf3e cd9d 5f3e e380 f83e 34ef 973e
00000350: f8e4 96be d544 9c3e bc51 963d b041 103e
00000360: 74ea 3e3e 9c6d 80bd 6058 933d 3fb2 c63c
00000370: f54a 003f 1159 debb 29f7 c8be c698 dcbe
00000380: 8a8f 30be 1962 8abe 9ab4 ecbe d5ed 7d3e
00000390: 334e 82be 0714 c6be a3f3 be3e e0f4 c4be
000003a0: b6f3 c63c a17b be3c 81ce 3fbe bb3d d3bd
000003b0: ee02 1d3e 5c4d 17be 3cfa c33e 2142 263e
000003c0: ec12 8dbd b984 5e3e 6fca 78be d7f5 6c3e
000003d0: ef47 953e 8db5 84be 3434 be3e 8920 c63e
000003e0: 5f51 eebd e13a 1fbf bcfe 9d3e fdba 0f3d
000003f0: 1ced fabe b256 34be ca6a 293d c65b 783c
0.120218754 0.25095072 -0.12938422 -0.049144603 0.046443217 0.16678186 0.07754414 0.34735554
-0.6042319 0.367235 0.23074633 0.18551154 -0.2551967 0.59845805 0.05443006 0.10868495
-0.18921651 -0.18918608 -0.16105157 0.009342172 -0.11982998 -0.38938767 -0.23132555 0.09094158
0.35733595 0.4350863 -0.42012316 -0.27816653 0.026085772 -0.040804137 -0.05235472 0.33612496
-0.2743509 -0.46715224 0.2785169 -0.14309177 0.33251628 0.077104114 0.24071574 -0.2957361
0.3620631 0.10594618 -0.056588583 0.074171 -0.1247831 -0.15294762 -0.1988481 -0.23052368
-0.40142134 -0.20637065 0.30440542 -0.10041146 0.37404057 0.38070387 -0.16350071 0.21805884
0.08203773 -0.3326956 0.48632294 -0.020945152 0.2071583 -0.2578076 -0.02292256 0.22812831
0.32047725 0.05844513 -0.14768994 0.19848107 0.25582665 -0.23998918 -0.31263772 -0.16326004
0.0792768 0.15009207 -0.1617771 -0.19936728 0.07715324 -0.27387652 0.3297007 0.20889361
-0.18159452 -0.31915554 0.4759397 -0.45549962 -0.33109054 0.08430939 0.15644589 0.1615612
0.37861 0.085997224 -0.06165787 0.2557371 -0.033325117 0.3199334 -0.30349082 -0.090050966
0.4307582 -0.2657251 0.037216045 -0.15212046 -0.578489 -0.4007107 -0.2316113 -0.48836818
-0.49550733 -0.24113384 0.08628398 -0.2765832 -0.12813061 -0.5131279 0.07421586 -0.27265808
0.08588873 -0.34328625 -0.1532003 0.28476104 0.0027071878 -0.54340637 0.16256233 -0.27663052
0.22594438 0.10579829 0.1351693 -0.061409418 -0.24520199 -0.06819695 0.16551542 -0.47866482
-0.16713516 -0.21395172 -0.47298834 0.24073432 0.12446495 0.15663475 0.47541586 -0.16307615
0.11794309 -0.31985024 0.3557864 0.12529075 -0.3278374 -0.3853931 -0.1871767 -0.42607266
0.40399793 0.36782184 -0.307378 0.09925697 -0.113197744 0.29393023 -0.5823253 0.46140903
-0.24058227 -0.36212653 -0.2065534 -0.1853587 -0.5375628 -0.47108927 -0.0039177146 0.41510594
-0.40880927 0.49759266 0.105183 -0.46351904 0.06766183 -0.5219511 0.08873184 0.26252776
0.1887221 0.35698953 0.3920009 -0.443774 0.039939847 -0.0064821783 -0.12899706 -0.09359151
0.1189562 0.3124178 -0.33326104 -0.08839009 -0.3485642 -0.16434674 -0.2672402 0.045522172
-0.0490545 -0.06889433 -0.04363086 -0.006364287 0.30151558 -0.113429576 0.1842576 0.25459716
-0.17638275 -0.44505996 -0.09881427 -0.12912041 -0.34904385 -0.42689174 -0.057545263 -0.41325426
-0.2616153 0.054020993 0.056887854 -0.43180978 0.2917631 0.15896302 -0.30456403 0.32072118
0.37333214 0.2183754 0.48535833 0.29674685 -0.29471564 0.30521265 0.07339808 0.14087558
0.18644124 -0.06270906 0.071945906 0.024254916 0.50114375 -0.00678552 -0.39251068 -0.43085307
-0.17242256 -0.27027968 -0.46231538 0.24797757 -0.25450286 -0.38687155 0.37295255 -0.38468075
0.024286132 0.02325231 -0.18731119 -0.103145085 0.15333149 -0.14775604 0.3827685 0.16236164
-0.06888375 0.21730317 -0.24295972 0.23140655 0.29156443 -0.25919762 0.37149203 0.38696697
-0.11636614 -0.6219922 0.3085841 0.035090435 -0.49009025 -0.17611197 0.041361608 0.015158599

arith.constant1 f4 [64, 64]
00000000: 961e 9abe c68b 733e 155a 05be b157 0b3e
00000010: 2499 ddbd 9833 6f3c 459a 37be b875 3dbe
00000020: 1de8 7bbe fed6 5abe f952 813e 1fa3 573e
00000030: 98ca 35bd 58c8 063b af9c 8d3e eda7 673e
00000040: ea65 b53d 577f 0b3d 50cb 293e 06c8 b53d
00000050: 34e8 8fbd 1eee a7bd 2bc0 a7be 4087 fabd
00000060: b993 86be e9ab 463e 5283 6d3e 1b4d 2c3e
00000070: ba06 b8bd d3cd 4f3d 620e 9b3d 4317 213d
00000080: 1739 953d ce4e c63e ee57 82bd 236d 6abd
00000090: 22a7 733e 9680 88be 1050 853e 9d4c 9e3e
000000a0: dfae 09bc f371 ec3d ae02 30be 244a 4f3e
000000b0: 3021 f93d 4b14 b53d abeb 1a3e 4b2c fb3d
000000c0: 48e5 85be c655 77be ee8a 033e ba4f 44bc
000000d0: 544d 14be d7c9 39be 251d 8bbe af1e 8b3e
000000e0: 74c9 eabc 0127 993e e2e3 25bb 56e2 6bbe
000000f0: 771e b73e 8e21 883e c098 3f3e 93c5 493d
00000100: 8985 06be ecb7 82be db5d 173d fcdc 9d3d
00000110: 221a b2bd 244d 9c3e e782 c5bd be77 193d
00000120: b833 63be 4e30 20bd 7d89 213d 7537 38bd
00000130: f259 263d fcc8 a53d 2c74 573e f615 853c
00000140: 00ec 7a3c 3c4c 5f3e 94a1 593e 1ac0 be3e
00000150: 98a9 163d a2a1 093e 35ce e03d 080b 163e
00000160: 95f8 aabc c8b9 5d3e 41c8 823e ed0e 83be
00000170: 0e40 3f3e 4cf7 6d3d 3ef1 183e 9821 573e
00000180: 7d0b 16bc f8dd f73d c90d 813d b0e4 98bd
00000190: 89c8 a83e d1ea b6be 6a65 ab3d 9732 e7bd
000001a0: ee6a 9a3e 85fd 753d 6676 723d ee2a 2cbe
000001b0: 0297 4b3e bf76 a0bd 8ac0 13bd 8432 5e3e
000001c0: 4962 63be 059c 40be d12d bd3e 8060 68bb
000001d0: f083 65be 15b6 213d a200 b93d 7e7c 75bd
000001e0: d67e 02bd fb8f 653e b24e 493e 02ac 943e
000001f0: 94b5 2dbe 65ac 1a3e cbe4 103e 215f 4d3d
00000200: 8521 673d 3ff0 893d 8904 c8bd ba03 61bd
00000210: c5d0 253e 46bb 833e 113c b03e 880b 9bbd
00000220: 7e6f e23e 7fa9 68bc 4797 b73e 66bd 013c
00000230: cdee a2be 9c78 7f3d 6bb2 f3bb cf43 8fbd
00000240: 629a e63d 4a54 3bbd b2bf 223d 66a3 973d
00000250: fcab 693e d18f 80be b109 27be 3ed8 4d3d
00000260: 3798 67be 992b 973e ee6b ab3e b08a 4a3d
00000270: 68e8 293c 6fa9 0ebe 6002 333e 65ad 063e
00000280: 423a 623e 5120 433e e73f a03e 0679 15be
00000290: 45a0 f73d f05b 16be df75 bb3d b722 47bd
000002a0: 2c0b 843c c2f4 60be a7ad 26be dc78 873e
000002b0: 1b11 4ebe 0681 95bc a9f2 8bbe 677a 5ebe
000002c0: 9dd6 9cbd 4f07 7bbe cd31 dd3d 573c dbbd
000002d0: a6ac b4be ff9a 753e 1d36 dbbd a014 d23d
000002e0: 2a65 c6be 8972 aa3d 51a9 94bd 8327 56be
000002f0: 37bd 2f3d 383f ea3d 4861 763e aa74 2f3e
00000300: d37e fb3c 7b51 4bbd 05e6 53be 4859 99bd
00000310: 5379 8b3d 0518 0ebe 6257 a0bd 01f9 d5bd
00000320: ab41 133c a8eb 56bb 7b6c 78bd 7c00 febd
00000330: bc9f 1fbe ec33 5fbe 0080 1ebc 56cf 8b3d
00000340: da0a 203e 09ac 323e 815b dcbd 3ad3 12be
00000350: 7c83 57bb 8a70 c5bd 0e82 42bd b4d4 1e3d
00000360: 2289 e03d 609e 70bd e547 163e ac70 2ebe
00000370: d4f2 31be a3a3 ec3d 8273 bf3d f732 48be
00000380: d5d0 573b 721f d9bd 3df7 8b3c bd6e f3bd
00000390: 46a5 b6bd b4c3 9e3d 46cd 0c3e 065f a03c
000003a0: ddeb 00be 5b75 a4bc e2df 93bb d5c6 683e
000003b0: dd30 1f3e 89d2 a03d 6d7c bc3d 9058 833d
000003c0: 515e f23d 22ff 5abd ea70 e7bd 065a 55bd
000003d0: 7696 1dbe 9df5 2cbe 5a75 113e 0d9d 04be
000003e0: 0ac2 d6bc 7da8 a73d bc60 bdbd 07d6 fc3d
000003f0: ed54 d93c 0455 57be 8948 0e3e 40ba 8cbc
-0.3010146 0.23783788 -0.13022645 0.1360767 -0.10820225 0.014599703 -0.17929943 -0.18501937
-0.24600263 -0.21371076 0.25258616 0.2105832 -0.04438266 0.0020566192 0.27658603 0.22622652
0.08857329 0.034056988 0.16581464 0.08876042 -0.07026711 -0.08199714 -0.327638 -0.12232828
-0.26284578 0.19401516 0.23194626 0.16826288 -0.08985658 0.0507334 0.07571103 0.039328825
0.0728628 0.38731998 -0.063644275 -0.057232987 0.23794225 -0.26660603 0.26037645 0.30917826
-0.008403509 0.115451716 -0.17188522 0.20243126 0.12164533 0.08841761 0.15128963 0.122643076
-0.2615149 -0.24153814 0.12845966 -0.011981899 -0.14482623 -0.18143402 -0.27170673 0.27171847
-0.028660513 0.2991257 -0.002531283 -0.23035559 0.3576543 0.265881 0.18710613 0.049260687
-0.13136877 -0.25530946 0.036954742 0.07708165 -0.08696391 0.30527604 -0.09644108 0.03746771
-0.22187698 -0.039108567 0.03943776 -0.044974763 0.040613122 0.08094975 0.2104041 0.016245823
0.015315056 0.21806425 0.21253043 0.37255937 0.03678283 0.13440564 0.10976831 0.14652646
-0.020870486 0.21652901 0.25543407 -0.25597325 0.18676779 0.05809717 0.14935777 0.21008909
-0.009158012 0.12102884 0.063014574 -0.07465494 0.32965496 -0.35726026 0.083689526 -0.11288946
0.30159706 0.06005623 0.059194945 -0.16813251 0.19881824 -0.07835149 -0.03607229 0.21698958
-0.22205462 -0.18809517 0.36949018 -0.003545791 -0.22413611 0.039480288 0.09033324 -0.059933178
-0.03185924 0.22418205 0.19658926 0.29037482 -0.16963798 0.15104826 0.14149778 0.05013955
0.05642845 0.067352764 -0.0976649 -0.054935195 0.1619292 0.25728816 0.34420827 -0.07570559
0.44225687 -0.014200567 0.35857603 0.007918691 -0.31822816 0.06237088 -0.0074370406 -0.06995355
0.11259915 -0.04573468 0.039733596 0.07404213 0.22819513 -0.25109723 -0.1631229 0.050255053
-0.22616659 0.2952545 0.3348078 0.04944867 0.010370351 -0.13931821 0.17481375 0.13152082
0.22092536 0.19055296 0.31298754 -0.14596948 0.12091116 -0.14683509 0.091533415 -0.04861709
0.016118608 -0.21968368 -0.1627718 0.26459396 -0.20123713 -0.01825 -0.27333573 -0.2172638
-0.07658122 -0.24514507 0.10800514 -0.10704868 -0.3528797 0.23984908 -0.10703681 0.1025784
-0.38749057 0.08322627 -0.07258857 -0.2091351 0.04290506 0.11437839 0.24060547 0.17134348
0.030700123 -0.049638253 -0.20693214 -0.07487732 0.0681025 -0.1387635 -0.07829167 -0.10447884
0.008987824 -0.003279427 -0.06065033 -0.12402436 -0.15588278 -0.2179715 -0.009674072 0.068266556
0.1562914 0.17448439 -0.107596405 -0.14338389 -0.0032884767 -0.09640606 -0.04748731 0.03877707
0.10963656 -0.05874479 0.14675863 -0.17035168 -0.17377788 0.11554649 0.09348203 -0.19550692
0.003293087 -0.10601701 0.017085666 -0.11886356 -0.08918242 0.07752171 0.1375018 0.01957656
-0.12589975 -0.02007549 -0.004512773 0.22732098 0.15545984 0.078526564 0.0920342 0.06413376
0.11834396 -0.05346597 -0.113008335 -0.052087806 -0.15389428 -0.16890569 0.14204922 -0.12950535
-0.026215572 0.081864335 -0.09246966 0.1234551 0.026529754 -0.21028525 0.13894857 -0.017178655

arith.constant2 f4 [8]
00000000: a1a1 1ebc 9082 e0ba dffa faba 8ac6 56bc
00000010: 3648 aa3b 569e bbbc 5ced 80bc 2efe 8b3d
-0.00968209 -0.0017128754 -0.0019148252 -0.013108859 0.0051965965 -0.022902649 -0.015738182 0.0683559

sequential_1/dense_1_2/BiasAdd/ReadVariableOp f4 [64]
00000000: 3706 193d a24f 6d3d 00a5 5a3d 55f9 e7bc
00000010: 5a85 b93c 7495 613d 6435 553d d5ed e73c
00000020: bf6b 033e 325d 523d d5ea 5a3d d1c2 bd3d
00000030: 8fa3 db3c 7817 a0bb b86e c63d 2813 563d
00000040: 3739 143d c72c 133d 604b 523d a9cf 613d
00000050: 30e8 893d 3105 ab3d 1cfc 733d d37d f73d
00000060: 7251 b93c 2780 8a3d 7209 ce3d 6aa9 f23d
00000070: 8380 5b3d fe8a ce3d 4e94 b13b 4ac6 2b3c
00000080: ab04 583d 9bfa 5f3d 4d49 173d 21d0 093c
00000090: 2ef5 eb3c 3dd3 883d 5db1 3a3d 41d0 91b9
000000a0: 68f5 b53d de39 bb3d 90c9 5f3d 5bef a83c
000000b0: 9fa4 a63d 64ef a03d cf6e 113d d7c3 893d
000000c0: 7a75 dc3d 49df 4f3d f1bb 373d 2d51 183e
000000d0: 3e14 433d c831 6d3d f0e5 473d 0651 1a3d
000000e0: e797 14bd 1612 823d 2ee6 b13d 4a49 9d3c
000000f0: a570 013d dcaa 213d 8aab 1d3d 193e b03d
0.037359443 0.057937272 0.053380013 -0.028317133 0.022646595 0.05507417 0.05205287 0.02831165
0.1283407 0.05135841 0.05344661 0.09265674 0.02681139 -0.00488561 0.09689087 0.052264363
0.036187377 0.035931375 0.051341414 0.05512968 0.067337394 0.083505996 0.059566602 0.12084546
0.022621844 0.06762724 0.10060395 0.118487194 0.053589355 0.100851044 0.0054192906 0.0104842875
0.052738827 0.054682355 0.03693514 0.008411438 0.028803434 0.066809155 0.045579303 -0.00027811716
0.08884698 0.09141897 0.054635584 0.020621946 0.08136868 0.0785816 0.035506066 0.067268066
0.107645944 0.05075005 0.04485697 0.14874716 0.047626726 0.057908803 0.04880327 0.037674926
-0.036277678 0.06351106 0.086864814 0.019199986 0.031601567 0.039469585 0.03849367 0.08605594

sequential_1/dense_1/BiasAdd/ReadVariableOp f4 [64]
00000000: 32b6 743e 86b1 1f3e 923a 0e3e 016f c63d
00000010: 7aae 133e 3d2b 0b3e be02 443e b290 093e
00000020: 87db cc3d 7178 1b3e 2fac 1f3e 3994 2c3e
00000030: 474a 3d3e cd70 133e 98d5 b63d 40c9 293e
00000040: ee7e 253e 44fb 0d3e 48c4 0a3e a621 0d3e
00000050: 2593 143e 0a63 dc3d 4c52 ff3d 5dad 173d
00000060: d9ac de3d df87 193e 6715 313e b358 103e
00000070: 09ad ff3d 7db5 5a3e 6c56 243e 424e 2d3e
00000080: 0d85 333e 353e 463e 6a2e 1a3e 2478 2b3e
00000090: 6054 103e 2809 493e a4f2 483e b45d 103e
000000a0: d6c3 bd3d 0839 293e 4ac8 3b3e 1ec1 133e
000000b0: 2f21 233e 8e59 4e3e f94f df3d 653e 4f3e
000000c0: 6bae 373e 60d6 163e 3eae 303e 53f2 1a3e
000000d0: bcef 0b3e e2d6 483e d247 013e 6190 0f3e
000000e0: e0ca ed3d 7abe c73d 2aa8 083e 68e8 083e
000000f0: 87e1 f83d ada0 533e 2401 fe3d 7cf4 a43d
0.23897627 0.15595064 0.1388953 0.09689141 0.14422026 0.13590713 0.19141671 0.13434103
0.10002809 0.15182664 0.15593027 0.16853417 0.18485366 0.14398499 0.089274585 0.16580677
0.16161701 0.13865381 0.13551438 0.13782367 0.14509256 0.10761078 0.12466869 0.037030566
0.10872812 0.14993237 0.1729332 0.14096336 0.12484176 0.21358295 0.16048592 0.16924384
0.17531224 0.19359668 0.15056768 0.16745049 0.14094687 0.19632399 0.1962381 0.14098245
0.09265868 0.16525662 0.18338123 0.14429137 0.15930627 0.2015135 0.109039254 0.20238645
0.17937629 0.14730215 0.17253968 0.15131502 0.1366567 0.19613221 0.12625054 0.1401992
0.11610961 0.097531274 0.133454 0.13369906 0.12152391 0.20666762 0.12402561 0.08054444

sequential_1/dense_1/MatMul f4 [64, 52]
00000000: 9386 7f3e 925f 813d c3c3 3b3d 2176 31bd
00000010: 13df ed3d a227 643e 672c 483e 7a6c bdbb
00000020: 0582 8fbd 4a7b 943d 0d9c 8dbd da4e 1e3d
00000030: 4cb9 08bd d926 8d3e fb27 173e e7be 733e
00000040: e177 fa3c cc80 9c3d ace9 0ebd 340f 483e
00000050: 915e 493d ce6b 383e 0cdb 283e 3ca3 eabd
00000060: fe08 d63c 4773 e7bc e7ef 04be 6182 9a3e
00000070: f026 ac3e ff6f 8d3e 5dab 1abe 1e02 13be
00000080: c30e 023e fff2 c239 b987 e23c cd6d fbbd
00000090: 1094 38be a8ba 86be 6ffb 2cbe 523a 753e
000000a0: a2f4 403e 1171 273e 2ebc 9cbe dfb5 463d
000000b0: 92e7 993e edc7 6a3e 532b 1c3e 6937 71be
000000c0: 5ae1 6fbe 1d5b e73d 3854 b6be 6790 043e
000000d0: 81f4 ddbc 313b 5b3d 532e d13d d3ac 88bd
000000e0: 4a47 17bd 58e5 c53d d3fd 3dbd b09e 87bd
000000f0: 682c e43c 7268 d9bd d917 583c b0d9 f0bd
00000100: 65f8 eabd 3a05 ccbc 6cce 95bd 1edd 3bbc
00000110: f18e 383e 8cc2 60bd 26bd ff3d 8df5 a13d
00000120: 17ed 9d3d 9d18 853d 869b 553e 685a bb3b
00000130: 0085 c23e 3924 083e cbd2 153e 9c3b d23c
00000140: 5d08 3f3d 6fd9 aebe fa37 ffbe 2bb6 a1bd
00000150: a256 9dbe 0891 8e3d 8114 44be 5242 30be
00000160: 1950 ae3e dec7 d83d 6abd 9b3e fd98 d2bb
00000170: 1fc4 4bbe 1baf 91be 74e4 26bd c9ee dcbd
00000180: a816 3fbd 907b ca3d d3d9 60be 4d5f 0f3d
00000190: b78d 723e 7b0c e9bd aac3 c5be f96d 5ebe
000001a0: 3cdd 5bbd 4e0a 3b3e 0b8b eb3d c036 00be
000001b0: 63cd 2f3d d5f0 19be 35a1 f53c c404 633e
000001c0: c541 1d3c bd8d c4bd 69b0 92bd 5947 083e
000001d0: 314a 343e 6125 a4bc 54b9 0c3e cb2b 233e
000001e0: 03e3 6c3e 39ae 90bd 59ae 7d3e 716c 823e
000001f0: 530f 763e 4391 c93c 2048 d43d e3ef 983e
00000200: 4def 233e 0415 0cbe cacb 04be 44ca 533d
00000210: c19a 103e ca66 de3e d3d1 a73c 3254 ec3d
00000220: 661b 363e a94b 17be fe03 4b3e f65b dc3d
00000230: cd0f 053e 5186 a73d 3221 d0bd 9c7c 92bd
00000240: ce83 27bd 6c2b a23e 618f e23c 9fcd a63d
00000250: 6d5f 9d3e a151 58bd 7b12 6b3e 2aa7 16be
00000260: f5e6 65be c902 b93e 3ca7 8e3e 9757 9dbe
00000270: 0e4f 9239 2bff b23d 10d5 343e 0e8d 6abd
00000280: 10da 07bd 04b9 543c ed3a 193e 020f 1d3e
00000290: 86b7 e7bd 30c0 623e f190 fa3d 6bf1 80bd
000002a0: 1019 a7bd fa84 383e 746f 5c3d 8538 a93c
000002b0: 789c 13be a2a9 513d 86ec aa3d 91fc 06bd
000002c0: 8a8a 0ebb 5ff2 b6bd fa57 253e b628 ea3d
000002d0: 4ee8 1e3d d535 833e 6224 923e 8ca5 8fbe
000002e0: 2dbb c7bd 0b26 8ebd 9c84 9cbd 1aa6 75bb
000002f0: 15ff a73e 6ab0 6ebd 1b38 c7be 3498 893e
00000300: 4615 953e 8e1a 983e 82bb 693d 5205 0ebe
00000310: f893 6dbe 9071 33be 1659 ff3d 4073 d73d
00000320: 17de 3f3e 410a 533e 56da 84be da24 3ebd
00000330: 2454 34bd a731 2e3e bbd5 b9bd 3c9b a23e
00000340: 4a3c 5e3e de14 373d 6545 283d 2f05 333e
00000350: 30e7 d0bd 3f59 bd3d 513a 0dbd 414c 123e
00000360: 80ef 92bd aad4 b43d d1e4 8c3d 6dd4 573d
00000370: 88c4 81bd 319a 203e fd4f 993d af71 273e
00000380: feb4 9bbd 6834 fb3d 40c3 273e c8c2 113e
00000390: 8e9a 84bc d221 333e dfbb 3ebc 1edd 5a3c
000003a0: bd10 313e 73a2 1bbd b735 323d 2488 3b3d
000003b0: 9f77 833e 2ea2 4ebd 8842 d63d 87b9 d43d
000003c0: 1b59 2f3e 610f 633e e76c b6bd 5807 65bd
000003d0: 6f93 c1bd d9dd d83c b0d8 6dbc 746e 293e
000003e0: 4d2e 873e 7dbc 2c3d 2882 4abd a62d 213e
000003f0: a088 04be e21d 4bbd 3982 133e e6c9 2b3e
0.2495368 0.06317057 0.04584099 -0.043325547 0.11614814 0.22280744 0.19548188 -0.0057807537
-0.07007221 0.07250078 -0.0691453 0.038649417 -0.033379838 0.275687 0.14761345 0.23803292
0.03057474 0.076417536 -0.034890816 0.1953705 0.04916245 0.18009874 0.1648981 -0.11456916
0.026127335 -0.02825321 -0.1298214 0.30177596 0.33623457 0.2762451 -0.15104432 -0.14356276
0.12700944 0.0003718361 0.027652608 -0.12276802 -0.18025231 -0.26314282 -0.1689279 0.23948029
0.1884332 0.16351725 -0.3061232 0.04851329 0.30059487 0.22927828 0.15250902 -0.23556294
-0.23425809 0.11296675 -0.3561113 0.1294571 -0.027094128 0.053523246 0.10213914 -0.066735886
-0.03693322 0.096628845 -0.046384644 -0.06622064 0.027853206 -0.106156245 0.0131892795 -0.117602706
-0.11473159 -0.024904836 -0.073147625 -0.011466293 0.18023278 -0.054873034 0.12487249 0.07908163
0.07711237 0.06498835 0.20860109 0.0057175644 0.37992096 0.13295068 0.14631192 0.02566319
0.046638835 -0.34150264 -0.49847394 -0.07896074 -0.30730158 0.06961256 -0.19148447 -0.17212799
0.34045485 0.10584997 0.3041795 -0.006426929 -0.19899033 -0.28453907 -0.040745214 -0.10787732
-0.046652466 0.09886849 -0.21958093 0.035002995 0.23686872 -0.113793336 -0.38625842 -0.21721639
-0.053677782 0.1826565 0.1150113 -0.12520885 0.04292048 -0.15033276 0.029984096 0.22169787
0.0095982 -0.09597347 -0.07162554 0.13308467 0.17606427 -0.020037355 0.13742572 0.15934674
0.23133473 -0.0706448 0.2477354 0.2547336 0.24029283 0.024605399 0.10365319 0.2987052
0.16009255 -0.13679892 -0.12968364 0.051706567 0.14121534 0.43437797 0.020485794 0.115394965
0.17783889 -0.14774956 0.19825742 0.10759728 0.12994309 0.08179916 -0.101625815 -0.071526736
-0.040897183 0.31673753 0.027656259 0.08144688 0.30736867 -0.052812222 0.22956268 -0.14712206
-0.22451384 0.36134937 0.27861965 -0.30730888 0.0002790619 0.08740076 0.17659402 -0.057263426
-0.033166945 0.012983564 0.14963885 0.15337756 -0.11314301 0.22143626 0.12234677 -0.06296047
-0.08159077 0.18019477 0.053817227 0.020656833 -0.14415157 0.051187165 0.083458945 -0.03295571
-0.0021750056 -0.08932947 0.16146842 0.11433546 0.03879576 0.25627008 0.28543383 -0.2805599
-0.09752498 -0.0694085 -0.07642481 -0.0037483037 0.328118 -0.05827371 -0.38909993 0.26873934
0.29117793 0.2970776 0.057063587 -0.13869217 -0.23200977 -0.1752379 0.12468164 0.10520029
0.18737064 0.2060938 -0.25947827 -0.046421863 -0.044025555 0.17011128 -0.09073969 0.3175906
0.21702686 0.044697635 0.041081805 0.17482446 -0.102003455 0.09245538 -0.034479443 0.14286901
-0.07174587 0.08829625 0.06879581 0.05269282 -0.063363135 0.1568382 0.0748596 0.1635196
-0.07602881 0.12265855 0.16383076 0.1423446 -0.016186979 0.1749337 -0.011641472 0.0133583825
0.17291541 -0.03799672 0.043508258 0.04578413 0.256772 -0.050447635 0.104619086 0.10386949
0.17123835 0.22173835 -0.0890749 -0.055915207 -0.09451949 0.026472973 -0.014516994 0.16546041
0.26402512 0.042171944 -0.049440533 0.1574007 -0.12942743 -0.049589045 0.14405145 0.16776237
